asl/asl_predict.pth (torch_old, 265821 bytes, 14 tensors)

weight f4 [10, 1, 3, 3]
0	0x3eb38329	0.35061005
1	0x3e0e669a	0.13906327
2	0xbe221a05	-0.15830238
3	0x3d8afe1f	0.06786751
4	0x3e40b9ad	0.1882083
5	0xbe56aee2	-0.2096515
6	0x3e608d06	0.21928796
7	0xbe6a36e2	-0.22872499
8	0xbe73cb66	-0.23808059
9	0xbe500f98	-0.20318449
10	0xbef1bfa6	-0.4721653
11	0xbe28204b	-0.16418569
12	0xbd189e06	-0.037260078
13	0x3e6d50db	0.23175375
14	0x3dc2d415	0.09513108
15	0x3eb502a3	0.35353574
16	0x3e3ccceb	0.18437545
17	0x3e4a911e	0.1978192
18	0xbea4d187	-0.32191107
19	0xbe0ac5ed	-0.13552065
20	0xbe667798	-0.22506559
21	0x3e271151	0.163152
22	0xbe0f3cd7	-0.13988052
23	0xbdeba5f2	-0.11506261
24	0x3ec1590c	0.3776325
25	0x3d345b84	0.04403259
26	0x3e9673fc	0.29385364
27	0xbda1bcbd	-0.07897327
28	0xbe485bb1	-0.19566227
29	0x3e30ec81	0.17277719
30	0xbecd7a6d	-0.40132466
31	0x3dc5e3b3	0.09662571
32	0x3e109286	0.14118394
33	0xbe50b4f7	-0.20381533
34	0x3eb970e3	0.36218938
35	0x3c569ed9	0.013099396
36	0xbe55a5ff	-0.20864104
37	0x3e08f59e	0.13374946
38	0xbacc9e2c	-0.0015611104
39	0x3e523ac9	0.20530237
40	0x3edb06c6	0.42778605
41	0x3d99d098	0.07510489
42	0xbe4a209e	-0.19739005
43	0xbe581b0f	-0.21104072
44	0x3d1a66e8	0.037695795
45	0x3d89d002	0.067291275
46	0x3c57cdaa	0.013171593
47	0xbeed7660	-0.46379375
48	0x3f0b9f5e	0.5454005
49	0x3de16943	0.11006405
50	0xbe0dbc1f	-0.13841294
51	0x3e1ffcb6	0.15623745
52	0xbc16f17e	-0.00921285
53	0x3cc5ef43	0.02416194
54	0xbe0fdfd1	-0.14050223
55	0x3e568bb9	0.20951737
56	0xbe9b2c58	-0.3030727
57	0x3e3f637a	0.18690291
58	0x3e97a186	0.2961542
59	0x3dc1b637	0.09458583
60	0xbe07bd11	-0.13255717
61	0xbe567b64	-0.20945507
62	0x3e5273fa	0.20552054
63	0xbe8fff7e	-0.28124613
64	0x3ed3ba40	0.41353035
65	0xbcd1cd89	-0.025610702
66	0xbe9a1a77	-0.30098316
67	0x3e53dd84	0.2068997
68	0x3e88e298	0.26735377
69	0xbec6170f	-0.38689467
70	0xbdc0c5d2	-0.09412731
71	0x3dedcf27	0.11611777
72	0x3d1ce11a	0.03830061
73	0x3ce80470	0.028322428
74	0x3f0c59f4	0.5482476
75	0xbee05a08	-0.43818688
76	0x3e093a8b	0.13401239
77	0x3ec92416	0.39285344
78	0xbf04bee9	-0.51853806
79	0xbe873166	-0.26404876
80	0x3e5b451d	0.21413083
81	0x3d692cfe	0.056927674
82	0x3ec28f59	0.3799999
83	0x3e02ae70	0.12761855
84	0xbd9c3592	-0.07627405
85	0x3d9bf6e3	0.07615449
86	0xbe1f2454	-0.15541202
87	0xbe487acc	-0.19578093
88	0xbc52c1fd	-0.012863633
89	0xbd9848f8	-0.07435793

bias f4 [10]
0	0xbe86ccb2	-0.26328045
1	0x3e9d410a	0.30713683
2	0xbe5ab580	-0.213583
3	0x3e86d2ff	0.26332852
4	0x3e0369e8	0.12833369
5	0xbded1a7b	-0.115773164
6	0xbdca65cf	-0.098827
7	0xbe3ee344	-0.18641382
8	0xbe3395fd	-0.17537685
9	0x3d7d9850	0.061912835

weight f4 [20, 10, 3, 3]
0	0x3db8fd70	0.09032714
1	0x3dad69bf	0.08467435
2	0x3cdf220b	0.027237913
3	0x3d46aa2a	0.048502125
4	0x3d597938	0.05309412
5	0x3d8c5069	0.068512745
6	0xbd18889c	-0.037239656
7	0xbdad9a18	-0.08476657
8	0x3adeaaf2	0.0016988202
9	0xbddf1cf9	-0.10894198
10	0xbc11acf2	-0.008891331
11	0xbd89130f	-0.06693088
12	0xbd7c10c6	-0.061539434
13	0xbdf43d40	-0.11925745
14	0xbccca0c7	-0.024979008
15	0x3cc66c8d	0.024221683
16	0x3d5fca69	0.054636393
17	0x3d0f8950	0.03504306
18	0xbdcdd9b7	-0.100512914
19	0x3d94ddc8	0.07268864
20	0xbd2aedd8	-0.04173073
21	0xbd76523d	-0.060137022
22	0xbd91e2ad	-0.07123313
23	0x3d9a65c5	0.07538942
24	0x3d8b067a	0.06788345
25	0xbd161fff	-0.036651608
26	0x3df37940	0.11888361
27	0xbdbdcf98	-0.09268111
28	0x3d891a46	0.066944644
29	0x3d1bdac9	0.038050447
30	0xbd721151	-0.059098545
31	0xbdc362fc	-0.09540364
32	0xbd95bd5d	-0.07311509
33	0xbca1b4c4	-0.019739516
34	0xbd8e3671	-0.069439776
35	0xbd816e7e	-0.06319903
36	0x3e073921	0.13205387
37	0x3d49a467	0.049229052
38	0x3d2654f0	0.040608346
39	0x3cb5a5e0	0.022173822
40	0xbcccc3c3	-0.02499569
41	0x3d0f5859	0.034996364
42	0xbca3825a	-0.019959617
43	0xbe2d9583	-0.16951565
44	0xbd31e9b3	-0.043435764
45	0xbd680f22	-0.056655057
46	0xbd64397d	-0.055718888
47	0xbd414285	-0.04718258
48	0xbe004b5c	-0.12528747
49	0xbd4e1a99	-0.050318334
50	0xbc05453d	-0.0081341835
51	0x3d98995e	0.074511275
52	0xbd8fa512	-0.070139065
53	0xbda1985e	-0.0789039
54	0x3ccd3682	0.025050405
55	0x3d5441cb	0.051820558
56	0xbcbee93a	-0.02330457
57	0xbe018823	-0.12649588
58	0xbd80e636	-0.06293909
59	0x3a07e612	0.00051841245
60	0x3ce1c453	0.027559435
61	0x3d5b9a61	0.053614024
62	0xbde23a3c	-0.110462636
63	0x3ddf27f9	0.10896296
64	0x3d637945	0.055535574
65	0x3de3a8d7	0.11116188
66	0x3cc18a08	0.023625389
67	0xbd9abb5a	-0.07555266
68	0xbdd0b84b	-0.10191401
69	0xbd8b87b3	-0.06812992
70	0x3a862b40	0.0010236278
71	0xbe011360	-0.12605047
72	0x3e0651d0	0.13117146
73	0x3dac0e5f	0.084011786
74	0x3de59342	0.11209728
75	0xbd64df2f	-0.055876907
76	0x3da5ea66	0.081013486
77	0xbd2a8d20	-0.041638494
78	0xbc314d38	-0.010821633
79	0xbe3f2c2c	-0.18669194
80	0xbe3c72a4	-0.18403107
81	0x3d0ebd10	0.034848273
82	0x3e0c8359	0.1372198
83	0x3e03f4bb	0.12886326
84	0x3a547426	0.00081044657
85	0xbbf0554c	-0.007334387
86	0x3ce4bed3	0.027923023
87	0x3d0743a0	0.033023477
88	0xbdf15c61	-0.11785198
89	0xbd05b902	-0.03264714
90	0x3e1f827b	0.15577118
91	0x3e2dea38	0.16983879
92	0xbe1f10cb	-0.1553375
93	0x3de45711	0.11149419
94	0x3de208af	0.110368125
95	0xbd7cb83f	-0.06169915
96	0x3e1a20e8	0.15051615
97	0x3d47042c	0.048587963
98	0xbe639a11	-0.2222674
99	0x3d7abfbb	0.061218005
100	0xbd1163a4	-0.035495415
101	0x3d98d3d9	0.07462282
102	0xbd62c350	-0.055362046
103	0xbdc338ab	-0.09532293
104	0x39d444f4	0.00040487165
105	0xbdad90a7	-0.08474856
106	0xbb97f139	-0.0046369103
107	0xbb2f89ae	-0.0026784944
108	0xbde03577	-0.109476976
109	0xbce8e842	-0.028431062
110	0x3c6b5c9a	0.01436534
111	0x3d941529	0.072305985
112	0x3d870401	0.065925606
113	0xbc800162	-0.01562566
114	0xbcf5c2ca	-0.03000011
115	0x3cd9fe55	0.026610533
116	0xbd526b8e	-0.051372103
117	0x3de29cd6	0.1106507
118	0xbde5d6ce	-0.11222611
119	0xbd544286	-0.051821254
120	0x3bb9ca70	0.0056698844
121	0x3dbd2f86	0.0923758
122	0x3e0f57e4	0.13998371
123	0xbd27abd1	-0.04093534
124	0xbd1d03cc	-0.0383337
125	0x3d950633	0.07276573
126	0x3dca4779	0.098769136
127	0x3ce03fa4	0.027374096
128	0xbdd06430	-0.10175359
129	0x3d322175	0.04348894
130	0xbe09407a	-0.13403502
131	0xbc989627	-0.018626286
132	0x3db72c14	0.08943954
133	0xbde48f02	-0.11160089
134	0xbdb236df	-0.08701872
135	0x3e1e7ceb	0.1547734
136	0x3e3c7f88	0.18408024
137	0xbdea36a1	-0.11436201
138	0x3df77753	0.12083306
139	0xbc118a2e	-0.008883042
140	0xbd910a90	-0.07082093
141	0x3dc0f4fc	0.09421727
142	0xbd508735	-0.050910193
143	0xbe093b82	-0.13401607
144	0x3e11fa55	0.1425565
145	0x3d75330a	0.059863128
146	0xbdbd0db0	-0.09231126
147	0xbc611e94	-0.013740201
148	0xbd8dfbb0	-0.06932771
149	0x3bb9c9f5	0.005669827
150	0x3d031876	0.03200575
151	0xbe024b8d	-0.12724133
152	0xbd713178	-0.058885068
153	0xbd6bbf1f	-0.057555314
154	0xbbf76932	-0.007550382
155	0xbdb35751	-0.08756889
156	0xbbf7078a	-0.0075387405
157	0xbde4e21d	-0.1117594
158	0x3d2debc9	0.04246119
159	0x3d610d86	0.054944538
160	0xbd8439db	-0.064563476
161	0x3d2dee93	0.04246385
162	0xbe4a53b4	-0.19758493
163	0xbddbf61b	-0.107403
164	0x3d050885	0.032478828
165	0xbe3bb4da	-0.18330708
166	0xbe1bab78	-0.15202129
167	0x3e40aaa9	0.18815102
168	0xbdf57aeb	-0.11986335
169	0x3d885b9d	0.06658099
170	0x3e34d722	0.17660192
171	0x3d1dc7c5	0.038520593
172	0x3d7c7400	0.061634064
173	0x3d0d6e2e	0.034528904
174	0x3d54e27b	0.0519738
175	0xbd2c8a61	-0.042124156
176	0x3d6a89a2	0.057260163
177	0x3cb9aaa9	0.022664385
178	0xbd96398c	-0.07335195
179	0xbdb752b2	-0.0895132
180	0xbdb3ae14	-0.08773437
181	0x3ce3ceec	0.027808629
182	0xbd814d8e	-0.063136205
183	0xbd7af65b	-0.0612701
184	0x3d83c895	0.06434742
185	0x3d6a2b79	0.057170365
186	0xbcc8933e	-0.024484273
187	0x3ccc8b13	0.02496866
188	0xbd4edec5	-0.05050542
189	0xbd8f812a	-0.07007058
190	0xbdbdb07b	-0.092621766
191	0xbd8fd54b	-0.07023104
192	0xbd5e0742	-0.05420614
193	0xbd8a0bdd	-0.06740544
194	0x3da30503	0.0795994
195	0xbc6856cc	-0.01418085
196	0xbd76d8f8	-0.06026551
197	0xbda92fc7	-0.08261066
198	0x3d809ff9	0.06280512
199	0xbbc5ef93	-0.0060405224
200	0x3dc44f42	0.0958543
201	0xbd38aba2	-0.045085557
202	0x3b8da3fd	0.0043225274
203	0x3d13c577	0.03607699
204	0xbdb16e6b	-0.08663639
205	0x3d015543	0.031575453
206	0x3db426e6	0.08796482
207	0xbd392212	-0.045198508
208	0x3d312741	0.043250326
209	0xbbb2f761	-0.005461619
210	0xbc000f31	-0.007816122
211	0xbd2312bd	-0.039812792
212	0x3d6bf9e1	0.05761135
213	0x3d8d46e1	0.06898285
214	0x3d124b8e	0.035716586
215	0x3dad9805	0.08476261
216	0xbd552663	-0.05203856
217	0xbd4a19e1	-0.049341086
218	0xbd6d6707	-0.057959583
219	0xbd998b13	-0.074972294
220	0xbdbfe6f7	-0.09370225
221	0x3c942822	0.018085543
222	0xbcf95166	-0.030434322
223	0xbd960dd7	-0.073268585
224	0xbcdfdd48	-0.027327195
225	0xbd95c667	-0.07313233
226	0xbdad8a5f	-0.08473658
227	0xbdac81c0	-0.08423185
228	0x3dbda8c2	0.092607036
229	0x3dbba83c	0.091629475
230	0xbc876f70	-0.01653263
231	0xbd1deca1	-0.038555745
232	0xbd69878b	-0.05701403
233	0x3cc5c614	0.024142303
234	0xbd7523d3	-0.059848618
235	0xbdadc86b	-0.08485492
236	0x3d3f8f91	0.046767775
237	0x3da943cf	0.082648866
238	0xbc6c9392	-0.01443948
239	0xbd1c9b2d	-0.038233925
240	0xbd8d8ece	-0.069120035
241	0xbbcc5f50	-0.006236948
242	0x3db9ae45	0.090664424
243	0xbd87f6cb	-0.06638869
244	0xbd43bada	-0.047785617
245	0x3d900e77	0.07034009
246	0x3d649108	0.055802375
247	0x3dbaf5c7	0.091289096
248	0x3dd2c6b2	0.102918044
249	0xbd3334c4	-0.043751493
250	0xbd76b095	-0.060226995
251	0x3caf04d0	0.0213646
252	0x3d98697c	0.074419945
253	0xbbf31aed	-0.0074189813
254	0xbdc58130	-0.09643781
255	0xbd02f1cf	-0.031968888

bias f4 [20]
0	0x3d0fc75b	0.03510223
1	0xbcd01065	-0.025398443
2	0x3c5fbb3e	0.013655482
3	0xbc61ec35	-0.013789226
4	0xbc2b6bff	-0.01046276
5	0x3cf529ee	0.02992722
6	0xbd6a2da2	-0.057172425
7	0xbdc947fb	-0.09828182
8	0x3d6533ce	0.055957608
9	0xbd90722c	-0.070530266
10	0x3dcd3a89	0.1002093
11	0x3cd10930	0.025517076
12	0x3b7c95bb	0.0038541395
13	0x3a3aa943	0.0007120559
14	0x3d5428ab	0.051796596
15	0xbda3924a	-0.07986887
16	0xbb56da52	-0.0032783938
17	0x3d615c2b	0.05501954
18	0xbd79260b	-0.060827296
19	0x3d572f04	0.052535072

weight f4 [10, 20, 3, 3]
0	0xbd9b801c	-0.07592794
1	0x3cb248d9	0.021763252
2	0x3ce400cf	0.027832417
3	0x3d68c9c8	0.05683306
4	0x3d5321b5	0.051545817
5	0xbd6be77f	-0.05759382
6	0x3d97dd48	0.07415253
7	0x3d4285e1	0.047490958
8	0xbd72a374	-0.059237912
9	0xbce5331d	-0.027978474
10	0x3ccfa4ea	0.025347192
11	0x3da438ac	0.08018622
12	0xbdb8a4e9	-0.09015829
13	0xbd1925bd	-0.037389506
14	0xbd8329e1	-0.06404472
15	0xbcbab062	-0.022789184
16	0x3c70ca4e	0.014696671
17	0xbe15f574	-0.14644414
18	0x3c3155f3	0.010823715
19	0xbc22309c	-0.009899285
20	0x3c14586c	0.009054285
21	0xbcef134f	-0.029184012
22	0x3d3253df	0.043537017
23	0xbd7b91a7	-0.0614182
24	0x3cbdb4f9	0.023157584
25	0x3d50f072	0.051010557
26	0x3d1e94bd	0.038716067
27	0x3ce3997d	0.02778315
28	0x3d617cbe	0.055050604
29	0xbd0be09c	-0.03414975
30	0x3d6bb388	0.05754426
31	0x3d5e2391	0.054233138
32	0xbd543bcf	-0.05181485
33	0xbdc7e25d	-0.09759972
34	0x3c5bb638	0.013410144
35	0xbd069465	-0.032856364
36	0x3d6ed3de	0.05830752
37	0xbd59cacd	-0.05317192
38	0x3bbd3061	0.0057735895
39	0x3e1bf874	0.15231496
40	0x3d884cd5	0.066552795
41	0x3d65b656	0.056082092
42	0xbe01e2df	-0.126842
43	0x3d6d53e8	0.057941347
44	0xbbe4eefa	-0.006986496
45	0xbe4d166f	-0.20028089
46	0xbe18c267	-0.14917909
47	0xbdfa5ed7	-0.122251205
48	0xbd8b40ef	-0.067994945
49	0xbdcf6f61	-0.10128666
50	0xbd3f9bba	-0.04677937
51	0x3ca743b0	0.020418018
52	0x3d12db7b	0.035853844
53	0x3ca2a4b3	0.019853925
54	0xbd34a9a0	-0.04410708
55	0xbdfd5313	-0.12369361
56	0xbcbb93fa	-0.02289771
57	0xbd1c776e	-0.038199835
58	0xbc9d6f3e	-0.019218083
59	0xb92852dd	-0.00016052597
60	0xbd781c7e	-0.060574047
61	0xbd3c7c73	-0.04601712
62	0xbc7c5165	-0.015400265
63	0xbd90d3e0	-0.07071662
64	0xbd80b222	-0.06283976
65	0xbd801260	-0.06253505
66	0x3d4d119d	0.050065625
67	0xbc31eb0a	-0.01085926
68	0x3c94856a	0.018130023
69	0x3cded71f	0.027202187
70	0xbd18c2d5	-0.03729518
71	0x3d701f50	0.058623612
72	0x3c435739	0.011922651
73	0xbd534a4a	-0.05158452
74	0x3d7f3fe6	0.062316798
75	0xbd69827c	-0.057009205
76	0xbcde7d6e	-0.027159419
77	0x3b1ca554	0.0023902254
78	0x3d6de7fa	0.05808256
79	0x3d83ed38	0.0644173
80	0x3d18566c	0.037191793
81	0xbcf50964	-0.029911704
82	0xbda56ff4	-0.08077994
83	0x3d371c74	0.04470487
84	0xbd51de15	-0.051237185
85	0xbd719190	-0.05897671
86	0xbd9180a3	-0.07104614
87	0x3d9737b6	0.07383673
88	0x3d806beb	0.06270584
89	0xbc3fd580	-0.011708617
90	0x3d964d17	0.073389225
91	0xbcc9e89e	-0.024647053
92	0xbd0601ef	-0.032716688
93	0xbd263efd	-0.040587414
94	0x3c00c413	0.007859248
95	0x3c3fa77f	0.011697649
96	0x3d012869	0.03153268
97	0x3ce23a14	0.027615584
98	0x3c88a101	0.016678335
99	0x3d182d05	0.03715231
100	0x3d838afb	0.06422993
101	0xbd4012c6	-0.046892904
102	0xbd3007c6	-0.042976163
103	0xbd8bd1ff	-0.06827163
104	0x3d8720e0	0.06598067
105	0xbc9469f2	-0.018116925
106	0x3d3469d4	0.044046238
107	0xbc7cbc3c	-0.015425738
108	0x3d904fce	0.070464715
109	0x3dd589ec	0.10426697
110	0xbd45f310	-0.048327506
111	0x3dfffced	0.12499414
112	0x3e3f6128	0.18689406
113	0x3cef0905	0.029179106
114	0xbd995376	-0.07486622
115	0x3c9c8aed	0.019109214
116	0x3cf1d357	0.02951972
117	0xbb32ebce	-0.0027301195
118	0x3d342b58	0.04398665
119	0xbd69c449	-0.057071958
120	0xbd3b43d4	-0.045718983
121	0xbc5c8bea	-0.0134610925
122	0x3ccaf625	0.024775574
123	0xbb405ea2	-0.002935328
124	0xbb07f612	-0.0020746035
125	0xbcc69f6d	-0.024245942
126	0x3dafee5e	0.08590387
127	0x3d57956a	0.052632727
128	0xbddda795	-0.10822979
129	0xbd0ae379	-0.03390834
130	0x3d0f5b7d	0.03499936
131	0x3d8db3d1	0.06919063
132	0xbd0cd072	-0.034378476
133	0x3b8a37f7	0.0042180973
134	0x3d39f66e	0.04540103
135	0x3dae0b1d	0.084982134
136	0x3d59ac96	0.053143106
137	0x3d1e35a3	0.03862537
138	0x3d8d9095	0.069123425
139	0x3d5713cc	0.052509114
140	0x3d1a292c	0.03763692
141	0xbe2ef981	-0.17087366
142	0xbcf33801	-0.02968979
143	0x3d192e13	0.037397455
144	0x3d38b690	0.04509598
145	0xbca95be8	-0.020673707
146	0x3cdc3a31	0.026883217
147	0xbda84b49	-0.082174845
148	0x3c9f333e	0.019433614
149	0xbd9c91b0	-0.07644975
150	0xbc17de6d	-0.009269339
151	0xbd4a155b	-0.049336772
152	0xbd90ff40	-0.07079935
153	0x3e291a38	0.16513908
154	0x3e79f6de	0.24410579
155	0x3e1ea0a3	0.15490966
156	0xbd85f4bd	-0.06540821
157	0xbc9a274f	-0.018817572
158	0x3acdd6b3	0.0015704244
159	0xbe51c86e	-0.20486614
160	0xbe3b9475	-0.1831835
161	0xbe47b5c5	-0.19502933
162	0x3def43b8	0.11682838
163	0xbd967d4c	-0.07348117
164	0xbd2df181	-0.042466644
165	0x3e3a71b2	0.18207434
166	0x3e0d68dc	0.13809532
167	0x3de1b930	0.1102165
168	0xbd268de3	-0.040662657
169	0x3dfbcbbc	0.122947186
170	0x3e648ab5	0.22318538
171	0x3d4496a8	0.04799524
172	0x3d9bc8c2	0.07606651
173	0x3d29e7cc	0.041480824
174	0xbd6518f9	-0.05593202
175	0xbd0ec386	-0.034854434
176	0xbd03d2ec	-0.032183573
177	0x3ccba45e	0.02485865
178	0xbd7a5f3b	-0.061125975
179	0xbd811fe0	-0.06304908
180	0xbcb55730	-0.0221363
181	0xbc2e1b65	-0.010626649
182	0xbd839cda	-0.064264014
183	0x3c9d48ca	0.019199748
184	0x3cf49542	0.029856328
185	0xbd445e65	-0.047941584
186	0xbcf30f4c	-0.02967038
187	0xbd3b36e2	-0.045706637
188	0xbc972cb8	-0.01845394
189	0xbd8570a1	-0.06515623
190	0xbd57389d	-0.052544225
191	0x3cad0755	0.02112166
192	0x3c3c5cd0	0.011496738
193	0xbcaaaa2d	-0.0208331
194	0x3c15b674	0.0091377385
195	0x3c5be6bc	0.013421711
196	0x3d00a2d4	0.031405285
197	0x3d06948e	0.032856517
198	0xbd218561	-0.03943384
199	0x3d11730b	0.035510104
200	0x3ab4142e	0.0013738924
201	0xbd627ad3	-0.055292916
202	0xbbdb36db	-0.006689889
203	0xbbe444b3	-0.0069661974
204	0x3c8c250b	0.017107507
205	0x3d59cae4	0.053172007
206	0xbcc1049a	-0.023561765
207	0xbd4bbb95	-0.04973944
208	0xbd831df0	-0.064021945
209	0x3d3f01ad	0.046632458
210	0xbd80871f	-0.06275772
211	0x3d73fc86	0.059566997
212	0xbd9751d5	-0.07388655
213	0x3bc9aa89	0.0061543626
214	0x3c732f3b	0.014842804
215	0xbd8111b8	-0.06302208
216	0xbccbc82f	-0.024875728
217	0x3d796e71	0.06089634
218	0x3ccb128c	0.024789117
219	0x3ba23f2f	0.0049513797
220	0xbd376eee	-0.044783525
221	0xbb13d930	-0.0022559874
222	0xbd7afc62	-0.061275847
223	0xbc80f050	-0.01573959
224	0x3d0d6c9c	0.034527406
225	0x3d6c5907	0.05770209
226	0xbc575e2f	-0.013145014
227	0xbd337f59	-0.04382262
228	0x3cbacabc	0.02280175
229	0x3d0b624c	0.03402929
230	0x3c432423	0.011910471
231	0xbd7f07f2	-0.062263437
232	0xbc355ad9	-0.011069023
233	0x3d2936bf	0.041311976
234	0xbd8d17b9	-0.0688929
235	0x3d88d332	0.06680907
236	0xbd8a5d6a	-0.067560986
237	0x3d47e2ed	0.048800398
238	0xbd392c76	-0.045208417
239	0xbd078f78	-0.033095807
240	0xbbc1ea56	-0.0059178276
241	0x3c7f793e	0.015592871
242	0x3cc560e4	0.024094053
243	0xbd91bbf2	-0.07115926
244	0xbcdc9091	-0.026924403
245	0xbd2b84ba	-0.041874625
246	0xbd4dcba3	-0.05024303
247	0xbbde140c	-0.006777292
248	0x3d25ecef	0.04050916
249	0xbcaa5200	-0.020791054
250	0x3d050bbf	0.032481905
251	0xbc781d93	-0.01514377
252	0xbbd1f55b	-0.0064074225
253	0x3bc32212	0.005954989
254	0xbd818756	-0.063246414
255	0xbcd35923	-0.02579934

bias f4 [10]
0	0xbd5d8e77	-0.054090943
1	0x3c989f0f	0.018630533
2	0xbd041b76	-0.03225275
3	0x3ce7f29d	0.02831393
4	0x3d58873c	0.052863345
5	0x3c0dc67a	0.0086532775
6	0x3d80f4a0	0.062966585
7	0xbd314442	-0.043277986
8	0x3c5d2b18	0.013499044
9	0x3d4abe2b	0.049497765

weight f4 [5, 10, 3, 3]
0	0x3dfbe6bf	0.12299871
1	0x3ddd0077	0.10791104
2	0xbdad34c6	-0.08457331
3	0xbd932567	-0.07184868
4	0xbcdfa292	-0.0272992
5	0x3d178fd4	0.0370024
6	0xbb980dca	-0.0046403157
7	0xbdad84da	-0.08472605
8	0x3d9ca49e	0.07648586
9	0x3d276f59	0.040877674
10	0x3dc1247c	0.09430787
11	0x3d1fae1e	0.03898441
12	0x3d421e62	0.047392257
13	0x3d16d245	0.036821622
14	0x3d7f3237	0.062303748
15	0x3cd6ac1b	0.026205113
16	0xbc0fadec	-0.008769494
17	0xbd061eaa	-0.032744087
18	0x3dc7ae27	0.09750014
19	0x3c871b8c	0.016492628
20	0xbcba8b75	-0.022771576
21	0x3cfb6925	0.030689785
22	0x3aa80835	0.0012819829
23	0xbb17430e	-0.002308074
24	0x3b44d6a3	0.003003516
25	0xbd87cbeb	-0.06630691
26	0x3dd8595e	0.105639204
27	0xbc264bb6	-0.010149887
28	0xbd74e155	-0.059785206
29	0xbd0eaacc	-0.034830853
30	0x3d178c9f	0.03699934
31	0xbcb3167c	-0.021861307
32	0xbe26cb1f	-0.16288422
33	0xbd3faa5d	-0.04679333
34	0xbcad0801	-0.02112198
35	0x3d5214b8	0.05128929
36	0xbe14f9d6	-0.1454843
37	0xbc9d31eb	-0.019188842
38	0xbd10eaf7	-0.03538033
39	0x3d41920e	0.04725843
40	0xbd86cd7d	-0.065821625
41	0xbdb9079e	-0.09034656
42	0xbcc53c0c	-0.024076484
43	0xbdf88f64	-0.121367246
44	0x3d82809d	0.06372187
45	0xbc548292	-0.0129705835
46	0xbda512c7	-0.08060222
47	0xbdb00b60	-0.085959196
48	0xbdd50c84	-0.10402778
49	0xbd50c5ea	-0.050969996
50	0xbdf40a20	-0.11915994
51	0xbdf553e8	-0.119788945
52	0xbd9ef1df	-0.07760977
53	0xbc5d9853	-0.013525086
54	0x3dead587	0.11466508
55	0x3c500b04	0.012697939
56	0x3e38b46b	0.18037574
57	0x3cda9510	0.026682407
58	0x3ddbab54	0.107260376
59	0x3d4a0fa7	0.049331333
60	0xbcc31486	-0.023813497
61	0x3dc42bd3	0.09578671
62	0x3e5c34ca	0.21504512
63	0x3bb8888f	0.0056315134
64	0xbd86d376	-0.06583302
65	0xbe220527	-0.15822278
66	0x3d43449e	0.04767286
67	0xbd973540	-0.073832035
68	0xbc9aeca5	-0.018911669
69	0xbe41f40f	-0.18940757
70	0xbdaa6b8c	-0.08321294
71	0xbdbac5b7	-0.09119742
72	0x3c9c8503	0.019106394
73	0xbcdef522	-0.027216498
74	0xbdb79f79	-0.08965964
75	0x3d26afd2	0.04069502
76	0x3d3b8eac	0.04579036
77	0xbdc02aa0	-0.0938313
78	0xbd5f3be6	-0.054500483
79	0x3dbeb350	0.09311545
80	0xbddc06b7	-0.10743468
81	0x3d6f4217	0.058412638
82	0x3d6e6aa0	0.058207154
83	0x3c71b134	0.014751721
84	0x3d3ed51f	0.046589967
85	0x3ca12d6d	0.019674981
86	0x3e47814e	0.1948292
87	0x3e1ccc2e	0.15312263
88	0xbaeff026	-0.0018305823
89	0x3e3f48fa	0.18680182
90	0xbe09292d	-0.13394614
91	0x3e0f518e	0.13995954
92	0x3e001793	0.12508993
93	0xbe11d8b0	-0.14242816
94	0xbe1e0be7	-0.15434228
95	0xbda8dd7d	-0.082453705
96	0x3e5148e1	0.20437957
97	0x3e8a7c67	0.27048036
98	0x3e62df96	0.22155604
99	0x3c3549cb	0.011064957
100	0x3d60e14e	0.054902367
101	0xbcbddbbe	-0.02317607
102	0xbd7787eb	-0.060432356
103	0x3db87aa1	0.090077646
104	0x3c416ded	0.0118059935
105	0xbdbeee96	-0.093228504
106	0x3d38022a	0.04492394
107	0x3db1f6ae	0.086896285
108	0x3d1884e5	0.037236113
109	0x3c7010da	0.014652455
110	0x3cf57868	0.02996464
111	0x3d97d0e7	0.07412892
112	0x3d3bd2c8	0.045855314
113	0xbd827a46	-0.06370978
114	0xbaf87d19	-0.001895818
115	0xbe0bbe9e	-0.13646933
116	0xbe271e38	-0.16320121
117	0x3d3bb842	0.04583002
118	0x3e427b05	0.1899224
119	0x3e109c96	0.14122233
120	0xbe130091	-0.14355685
121	0xbdf87f12	-0.12133612
122	0x3e03f45a	0.12886181
123	0x3e0e869c	0.13918537
124	0x3d0d838e	0.03454929
125	0xbe563270	-0.20917678
126	0x3d23d05f	0.03999364
127	0xbdaf3f6a	-0.08557017
128	0x3da269a0	0.079303026
129	0x3d4f34f6	0.050587617
130	0xbbbb4274	-0.005714709
131	0xbdad524c	-0.084629625
132	0xbcde41c2	-0.027130965
133	0xbceb574a	-0.028728146
134	0x3cf34e25	0.029700348
135	0x3e2a9343	0.16657738
136	0x3e437e23	0.19091086
137	0x3d0aa119	0.03384504
138	0x3dcfe5f6	0.101512834
139	0x3ca3b075	0.019981602
140	0x3cbef39e	0.023309525
141	0x3d9eca66	0.07753448
142	0x3d33f64e	0.043936066
143	0x3e3663df	0.17811535
144	0xbe075d0a	-0.13219085
145	0xbc3b2902	-0.011423351
146	0xbe11ed46	-0.14250669
147	0x3d268a00	0.04065895
148	0x3e0b37d5	0.13595517
149	0x3e817d6f	0.2529101
150	0xbdcceb0d	-0.1000577
151	0xbbf056e1	-0.0073345755
152	0x3d411042	0.047134645
153	0x3cfb7715	0.030696431
154	0x3d678035	0.056518752
155	0x3c777e37	0.015105776
156	0xbd0fdf73	-0.035125207
157	0xbdeaaf9e	-0.114592776
158	0x3d8c11f6	0.06839363
159	0x3c36419b	0.01112404
160	0x3b40a12e	0.0029392946
161	0xbd2a3950	-0.041558564
162	0x3de91ad0	0.11382067
163	0x3df92105	0.12164501
164	0x3d6345a3	0.055486333
165	0x3e8934a2	0.26797968
166	0x3e8cde79	0.27513483
167	0x3e27b1b0	0.16376376
168	0xbcd26847	-0.025684489
169	0xbc317ad2	-0.010832505
170	0x3e94bf20	0.29052067
171	0x3d5912e1	0.05299652
172	0xbd221c65	-0.03957786
173	0xbdad93fb	-0.08475491
174	0x3cd3e864	0.025867648
175	0xbd82d09e	-0.06387447
176	0x3d1da7a7	0.038489964
177	0xbe1f45e2	-0.15554002
178	0xbd860a0d	-0.06544886
179	0xbdfb093f	-0.12257623
180	0xbd0c5f1c	-0.03427039
181	0xbaad55fd	-0.0013224479
182	0xbdd2fa9b	-0.103017054
183	0x3dae1fa1	0.085021265
184	0xbd3b47e7	-0.04572287
185	0xbd82bf04	-0.063840896
186	0x3e18ff0d	0.14941044
187	0x3e379ee3	0.17931704
188	0x3deec10a	0.11657913
189	0xbdb698c7	-0.08915859
190	0x3d08dfe9	0.033416662
191	0x3c5fbf68	0.013656475
192	0xbce7cac7	-0.028294934
193	0xbdd5ce6f	-0.10439765
194	0x3d640c64	0.05567588
195	0xbd5e5771	-0.05428261
196	0x3daf4830	0.085586905
197	0x3cc4b6f3	0.024013018
198	0x3d74bd49	0.05975083
199	0xbd5d04b4	-0.053959563
200	0xbd680148	-0.056641847
201	0xbdaa153e	-0.08304833
202	0x3dab92ca	0.08377607
203	0xbb2909b3	-0.0025793135
204	0x3c860fd0	0.016364962
205	0xbddf2252	-0.10895218
206	0x3d5259d6	0.051355205
207	0xbd405e02	-0.046964653
208	0xbd3a5e73	-0.04550023
209	0x3cc8c629	0.024508553
210	0xbde7228b	-0.112858854
211	0x3d1b92b7	0.037981715
212	0xbcda414a	-0.02664246
213	0xbce5593d	-0.027996654
214	0xbe0301ba	-0.12793627
215	0xbe01a6d7	-0.126613
216	0xbd728126	-0.059205197
217	0x3db63bde	0.088981375
218	0x3a990bea	0.0011676524
219	0x3d05839b	0.032596212
220	0xbdb44e32	-0.08803977
221	0x3d0ebdc5	0.034848947
222	0xbda568a9	-0.08076603
223	0xbce450e6	-0.027870607
224	0x3cc142c8	0.023591414
225	0xbd8315e8	-0.06400663
226	0x3cc1f418	0.023675963
227	0x3d53f8da	0.051750995
228	0x3c5fd0ce	0.013660623
229	0x3da077fc	0.07835385
230	0xbd15e92a	-0.036599316
231	0xbd1ab7c1	-0.037772898
232	0x3d1510fc	0.03639315
233	0x3c98ece9	0.018667655
234	0x3b63db6e	0.0034768241
235	0xbd3e76df	-0.046500083
236	0xbdbbc84a	-0.091690615
237	0x3d9928ef	0.074785106
238	0xbdd5121c	-0.10403845
239	0xbdf4f8a2	-0.119614854
240	0x3d4ce814	0.050026014
241	0xbcf3910c	-0.02973225
242	0xbd81379a	-0.06309433
243	0xbdc99903	-0.09843638
244	0x3d1e562c	0.0386564
245	0xbc3d168d	-0.011541021
246	0xbd80c832	-0.06288184
247	0x3d6c4170	0.057679594
248	0x3bf9feec	0.007629266
249	0xbbcbc15d	-0.006218119
250	0xbd297ae5	-0.041376967
251	0xbd313a02	-0.04326821
252	0x3cec922c	0.028878294
253	0x3d6c8186	0.05774071
254	0xbdcb63bf	-0.099311344
255	0x3dcdb34a	0.10043962

bias f4 [5]
0	0xbc8b9353	-0.017038023
1	0xbb88fd5a	-0.0041805925
2	0x3c862285	0.016373882
3	0xbd9b7633	-0.07590904
4	0xbdbdfdd6	-0.09276931

weight f4 [120, 405]
0	0x3cd0f7d2	0.025508795
1	0xbc6c01a8	-0.014404692
2	0xbd226fa1	-0.03965724
3	0x3c1ff44c	0.009762835
4	0x3ca6e38c	0.020372175
5	0x3cb919a8	0.022595242
6	0xbc81dba4	-0.015851803
7	0xbceb4fe5	-0.02872462
8	0xbc486eff	-0.012233495
9	0xbd3c71ef	-0.046007093
10	0x3c6e57cf	0.014547302
11	0x3c25e534	0.010125447
12	0xbcbfbe5d	-0.023406202
13	0x3b2e3909	0.0026584289
14	0xbcdae3c5	-0.026719937
15	0xbc424837	-0.011858038
16	0xbd23430b	-0.03985886
17	0x3c9e80c6	0.019348513
18	0xbc383b9e	-0.011244683
19	0x3c879685	0.016551265
20	0xbcd4d36d	-0.025979722
21	0x3d15ce81	0.03657389
22	0x3cbf7f68	0.023376182
23	0xbd0a87dc	-0.03382097
24	0xbcdb6607	-0.026782049
25	0x3d15be7e	0.03655862
26	0xbd386134	-0.045014575
27	0x3ca5377f	0.020168064
28	0x3ce5925e	0.028023895
29	0xbd3c607b	-0.04599045
30	0xbd2575ee	-0.04039567
31	0xbd46b907	-0.0485163
32	0xbc7d3294	-0.015453953
33	0x3d0edd44	0.034878984
34	0xbb8b5372	-0.004251891
35	0x3c85934e	0.016305592
36	0xbd504e1f	-0.050855752
37	0x3ba92c65	0.005162763
38	0x3d0d999b	0.034570318
39	0xbce91642	-0.028452996
40	0x3cb6ec93	0.022329604
41	0xbd30923b	-0.043108206
42	0xbd7922c8	-0.060824186
43	0xbd732858	-0.059364647
44	0xbd868004	-0.06567386
45	0xbb71749e	-0.003684319
46	0x3c4d5025	0.012531315
47	0x3cc7902d	0.02436074
48	0x3cb9acc7	0.022665394
49	0xbd39ffb6	-0.04540988
50	0xbba1bdd5	-0.00493596
51	0xbd8202fd	-0.06348226
52	0xbc8ddd4a	-0.017317433
53	0xbc6ade4b	-0.014335225
54	0xbc6d4da9	-0.014483848
55	0xbbb963ac	-0.0056576338
56	0x3c2e3a3d	0.010634002
57	0xbcec37b3	-0.028835153
58	0x3c9eda5b	0.01939123
59	0xbd360898	-0.04444179
60	0x3cc9a76f	0.024615971
61	0x3cd008b4	0.025394775
62	0xbb0e9f21	-0.0021762329
63	0xbcae3c3d	-0.021268958
64	0xbd0d95bc	-0.034566626
65	0x3cb52e25	0.02211673
66	0xbd02dbed	-0.03194802
67	0xbd3f5f22	-0.046721585
68	0xbd009945	-0.03139617
69	0x3c1c50a3	0.00954071
70	0x3d1f43da	0.038883068
71	0x3d61f86c	0.055168554
72	0xbc95dd18	-0.018293902
73	0x3d0e8570	0.034795225
74	0xbccebed2	-0.025237475
75	0xbd3d3c10	-0.04619986
76	0xbc9e8d8a	-0.0193546
77	0xbd128768	-0.035773665
78	0x3cde0ae6	0.027104806
79	0x3d217067	0.039413836
80	0x3d34f4a3	0.044178616
81	0xbc65f7b5	-0.014036109
82	0x3c4e8ee7	0.012607313
83	0xbba880b0	-0.005142294
84	0x3cf85dca	0.03031816
85	0xbba881c5	-0.005142423
86	0x3c9a811d	0.018860394
87	0x3cfa0e33	0.030524349
88	0x3beffffb	0.0073242164
89	0x3b062dfd	0.0020474188
90	0xbce4b0ed	-0.027916396
91	0xbd326ac5	-0.043558855
92	0x3c4d86ca	0.012544343
93	0xbac53862	-0.0015046711
94	0xba66c46a	-0.00088030717
95	0x3d4f5912	0.050622053
96	0xbced811f	-0.028992234
97	0xbbd677ed	-0.006545058
98	0xbc90ef64	-0.017692275
99	0x3b0d54d9	0.0021565466
100	0xbcc20ec0	-0.023688674
101	0x3bfde21d	0.007747902
102	0x3b887250	0.0041640177
103	0x3c9c5038	0.01908122
104	0xbd256213	-0.040376734
105	0xbc7a9cb8	-0.015296154
106	0x3c809547	0.015696181
107	0x3bb438f5	0.005499954
108	0xbcfe72a9	-0.031060534
109	0x3d41eab8	0.047342986
110	0xbd0c1fb5	-0.034209926
111	0xbcfd4599	-0.030916976
112	0xbd29e72e	-0.041480236
113	0xbd28b615	-0.041189272
114	0xbd247f6b	-0.040160578
115	0x3d407c85	0.04699375
116	0x3d2e7ffa	0.042602517
117	0x3cc2e102	0.023788933
118	0xbd55a59b	-0.052159887
119	0xbd292f26	-0.04130473
120	0xbb6c0129	-0.0036011434
121	0xbd0637b1	-0.032767955
122	0x3c2b4aee	0.010454876
123	0xbc0fba0e	-0.008772386
124	0xbd26252d	-0.040562797
125	0x3d0a6305	0.03378584
126	0x3c3686bf	0.011140524
127	0x3cb0ea6c	0.021596156
128	0x3d1c4d7c	0.038159832
129	0x3d5182bb	0.051150065
130	0x3c989514	0.018625773
131	0x3c9191d0	0.017769724
132	0x3c993df7	0.018706305
133	0x3d01af8c	0.031661555
134	0xbcdb2a55	-0.026753584
135	0x3bb83b64	0.0056223143
136	0x3d22d6d1	0.039755646
137	0xbbbab277	-0.005697544
138	0xbd199445	-0.037494916
139	0x381d1c24	3.7457925e-05
140	0xbc6dc1d5	-0.014511545
141	0xbca41066	-0.02002735
142	0xbce27f7e	-0.027648684
143	0x3ca7fcd8	0.020506307
144	0x3d27872a	0.040900387
145	0x3cdf2720	0.027240336
146	0xbd30d1f3	-0.043168973
147	0xbc480faa	-0.012210766
148	0x3acaae09	0.0015463243
149	0x3d2da762	0.042395957
150	0xb95e8181	-0.00021219814
151	0xbc02b997	-0.007978818
152	0xbd45a63a	-0.04825423
153	0xbd27865c	-0.04089962
154	0xbb80119d	-0.0039083497
155	0x3c1fdab9	0.009756737
156	0xbd48243a	-0.048862673
157	0x3d2eb87e	0.042656414
158	0x3cd5c3a5	0.026094267
159	0x3b687731	0.0035471434
160	0xbd23ad4b	-0.039960187
161	0xbb500ff3	-0.0031747788
162	0xbd38fb2a	-0.045161404
163	0x3d1379e5	0.03600492
164	0x3cd0a4cd	0.025469208
165	0x3d3204d9	0.043461654
166	0xbcebbb16	-0.028775733
167	0x3d08e98c	0.033425853
168	0xbd3da1ef	-0.04629701
169	0x3cfe5e51	0.031050833
170	0x3d1198f7	0.03554627
171	0xbcabfd96	-0.020994943
172	0x3c543dc9	0.012954184
173	0x3c8727b5	0.016498426
174	0xbd0933ca	-0.033496656
175	0x3d289357	0.04115614
176	0x3d09e3c9	0.0336645
177	0xbcb65803	-0.022258764
178	0xbbb94136	-0.0056535257
179	0x3d0a9a12	0.03383834
180	0x3c1f6b3e	0.009730158
181	0xbd10717a	-0.03526447
182	0xbd4057a1	-0.04695857
183	0xbcff05ce	-0.031130698
184	0xbd40817f	-0.046998497
185	0xbc976936	-0.018482786
186	0x3d0dcdf6	0.034620248
187	0x3cdffbd0	0.027341753
188	0x3cf4a840	0.029865384
189	0xbcf1c184	-0.02951122
190	0x3b5a8f98	0.0033349749
191	0x3c50a02c	0.0127335
192	0xbd1a6db1	-0.037702266
193	0x3d3e2b27	0.046427872
194	0xbb69df5c	-0.003568611
195	0x3c860414	0.016359366
196	0x3d2fe0a6	0.04293885
197	0xbd4466ec	-0.047949716
198	0x3d0cf572	0.034413762
199	0xbca15f4f	-0.019698767
200	0x3d172bdc	0.036907062
201	0x3cffab2b	0.031209549
202	0xbd07f4bb	-0.033192378
203	0x3d01aaf9	0.031657193
204	0x3b18f4d9	0.00233393
205	0xbd0d6154	-0.034516647
206	0xbce149df	-0.027501045
207	0xbbf97d4f	-0.007613815
208	0x3bf777db	0.0075521297
209	0xbd2cb10e	-0.04216104
210	0x3cac2b23	0.021016663
211	0x3cfba500	0.030718327
212	0x3cd7ebf5	0.02635763
213	0x3b24112c	0.002503465
214	0x3d09cb35	0.03364106
215	0xbcfeffc1	-0.031127812
216	0xbc05fc21	-0.008177788
217	0xbc9f1482	-0.019418959
218	0xbd3e7c43	-0.046505224
219	0xbcaff950	-0.021481186
220	0xbcc789e9	-0.024357753
221	0x3d299f04	0.041411415
222	0xbcb18c88	-0.021673456
223	0x3c954498	0.018221185
224	0xbb6ea43b	-0.0036413807
225	0x3d22ecba	0.03977654
226	0x3d1e5304	0.03865339
227	0xbcd5b723	-0.026088303
228	0xbc703c8a	-0.014662871
229	0xbc896118	-0.01676993
230	0xbd0960d1	-0.033539597
231	0xbc0fb516	-0.008771202
232	0xbd30ba55	-0.04314645
233	0xbcd07460	-0.025446117
234	0x3c8d65aa	0.017260391
235	0x3bad0382	0.005279959
236	0xbc5e28c7	-0.013559527
237	0xbb2416b5	-0.0025037949
238	0xbc0b4c62	-0.008502098
239	0xbd431105	-0.047623653
240	0x3c245b17	0.010031483
241	0xbca8c521	-0.02060181
242	0xbd0f6578	-0.035008878
243	0xbd32b70c	-0.0436316
244	0x3c82b378	0.015954718
245	0x3cfa70ec	0.030571423
246	0xbcf5580b	-0.029949209
247	0x3d17acfe	0.037030213
248	0x3d0bac49	0.03409985
249	0xbc05e470	-0.0081721395
250	0xbc0a2fef	-0.00843428
251	0x3c5ddf02	0.013541939
252	0xbcf0a653	-0.029376185
253	0xbbcfcdcd	-0.006341672
254	0x3c27d8ec	0.010244589
255	0x3cee9230	0.029122442

bias f4 [120]
0	0xbcf49524	-0.029856272
1	0x3d4c0a52	0.04981453
2	0x3c90d3fd	0.017679209
3	0x3c46b502	0.012128117
4	0x3d1ba476	0.03799864
5	0xbd26cdc9	-0.040723596
6	0xbc8611d1	-0.016365917
7	0x3cc2615a	0.023728061
8	0x3b861656	0.004092018
9	0x3b25a7c2	0.0025276993
10	0xbcdc2bb4	-0.026876308
11	0xbd178d4f	-0.036999997
12	0xbd135c87	-0.035976913
13	0x3c8dbd3e	0.017302152
14	0xbd04b526	-0.03239932
15	0x3d00173e	0.031272165
16	0xbd09f509	-0.03368095
17	0xbb0f725d	-0.0021888234
18	0xbce2a644	-0.027667172
19	0x3d0f71ae	0.035020523
20	0xbc0b3741	-0.00849706
21	0x3c52cf48	0.0128668025
22	0xbc8ce6fe	-0.01719999
23	0xbbb9e5e8	-0.005673159
24	0x3cd7961f	0.0263167
25	0xbc8b41b4	-0.016999103
26	0x3cf23166	0.02956457
27	0x3d244497	0.040104475
28	0xbd1907ec	-0.03736107
29	0xbc55776c	-0.013028961
30	0x3cd5160a	0.026011486
31	0xbc1a1c9e	-0.009406237
32	0x3cf3c506	0.029757034
33	0x3bbc94bb	0.0057550347
34	0x3d33b653	0.04387505
35	0x3d0a5bd2	0.033778973
36	0x3d1040fb	0.03521822
37	0xbc878da8	-0.01654704
38	0xbcc99fad	-0.024612272
39	0x3cb71955	0.022350946
40	0xbbf821dc	-0.0075723957
41	0x3d1d7d3b	0.038449507
42	0xbcf53322	-0.029931609
43	0xbd46dcab	-0.04855029
44	0x3813f89f	3.5279078e-05
45	0x3c8cb7dc	0.017177515
46	0x3ca2e7b3	0.019885873
47	0x3d15b644	0.036550775
48	0xbd29da2a	-0.041467823
49	0x3c79b963	0.015241954
50	0x3d32dc45	0.043667097
51	0xbd02ca2b	-0.031931084
52	0x3c195da7	0.009360707
53	0x3d39d041	0.045364622
54	0xbbb452bc	-0.005503027
55	0x3b9f2119	0.0048562405
56	0xbcfa7e94	-0.030577935
57	0xbcff0f4e	-0.031135228
58	0xbd3fee92	-0.046858378
59	0x3d1838f9	0.03716371
60	0xbbf9c974	-0.007622892
61	0xbd32c3f2	-0.0436439
62	0x3b6a5c53	0.0035760596
63	0x3b777a10	0.0037761964
64	0xbd4c3ba7	-0.049861576
65	0x3b107335	0.0022041325
66	0x3c186b07	0.009302861
67	0xba981f77	-0.0011606057
68	0x3d3ccaf2	0.04609198
69	0x3cbbff9f	0.022949038
70	0x3cd0311f	0.025414048
71	0xbcf7dab1	-0.030255647
72	0xbcc764a0	-0.024339974
73	0xbd049344	-0.032367006
74	0xbae1f675	-0.0017239588
75	0xbd32bad9	-0.043635223
76	0x3ccb57cd	0.02482214
77	0x3c08b72e	0.008344455
78	0xbcbb6f41	-0.022880198
79	0x3d54b288	0.051928073
80	0xbb82a3d4	-0.003986815
81	0x3d0a7185	0.033799667
82	0xbb966dd1	-0.004590728
83	0xbc75c37e	-0.015000222
84	0xbc61720c	-0.013760101
85	0xbcbf0520	-0.023317873
86	0x3d40a018	0.047027677
87	0xbc3295a6	-0.010899937
88	0xbc86d887	-0.01646067
89	0x3c02d70c	0.0079858415
90	0x3a3187f9	0.00067722757
91	0xbcf77907	-0.030209078
92	0xbd2d9fb4	-0.042388633
93	0xbbfcf2ea	-0.0077193873
94	0x3cecbcc3	0.028898602
95	0x3c536d7a	0.012904519
96	0x3b6627ed	0.0035119012
97	0xbce10872	-0.027469847
98	0xbd1ebd9f	-0.038755056
99	0x3c758806	0.014986044
100	0xbc9379b8	-0.018002376
101	0xbc56ad23	-0.013102802
102	0x39be2fc5	0.00036275215
103	0x3cf0adb2	0.0293797
104	0xbd172416	-0.03689965
105	0x3c199468	0.009373762
106	0xbd369634	-0.04457684
107	0xbd2306d6	-0.03980144
108	0xbc90f0b7	-0.017692907
109	0x3ca28249	0.019837515
110	0xbce725de	-0.028216299
111	0x3d1d13fe	0.038349144
112	0xbc42c222	-0.011887105
113	0xbc2a821b	-0.010406996
114	0x3acae19d	0.0015478615
115	0xbd31d274	-0.043413594
116	0xbd38c8c8	-0.045113355
117	0x3c6608ee	0.014040215
118	0x3ce0da3d	0.027447814
119	0xbd1c0f35	-0.03810044

weight f4 [84, 120]
0	0x3d72e334	0.05929871
1	0xbc3f0542	-0.011658968
2	0xbd9b7add	-0.07591794
3	0xba8832aa	-0.0010391076
4	0xbccc060e	-0.02490523
5	0x3d7dbeec	0.061949655
6	0xbd84e208	-0.064884245
7	0x3db33406	0.08750157
8	0xbd6e62f9	-0.058199856
9	0x3d9ddcea	0.07708152
10	0x3d5efa51	0.05443794
11	0xbbeceb9a	-0.0072302343
12	0xbdcb5b95	-0.09929577
13	0x3d2a6167	0.041596796
14	0xbbd27e78	-0.0064237677
15	0x3cb68bed	0.022283519
16	0x3d1a7187	0.037705924
17	0xbd1500bd	-0.036377657
18	0xbddfbd6c	-0.10924801
19	0x3c687de1	0.014190168
20	0xbd89709b	-0.06710931
21	0xbda345f4	-0.07972327
22	0x3dd05087	0.10171609
23	0xbdcccef6	-0.10000412
24	0xbc38fae8	-0.011290289
25	0xbb9402fa	-0.0045169564
26	0xbd1fffbc	-0.039062247
27	0x3d5f67e1	0.054542426
28	0xbdadcc05	-0.08486179
29	0xbd485a1e	-0.048914067
30	0x3d58c1f9	0.05291936
31	0x3e017453	0.1264203
32	0xbc0f3d5c	-0.008742657
33	0x3c03ce47	0.008044786
34	0x3d02df7b	0.03195141
35	0x3d01ac6a	0.031658567
36	0x3c9322f9	0.017961012
37	0xbdafee6c	-0.08590397
38	0x3d2fe535	0.0429432
39	0xbd977bb3	-0.07396641
40	0xbbd052ce	-0.0063575273
41	0xbdb8f11a	-0.090303615
42	0xbd5799f9	-0.052637074
43	0xbddd3ab1	-0.1080221
44	0x3d9dc099	0.07702751
45	0x3d9252e4	0.071447164
46	0x3cdf43a2	0.02725393
47	0x3ae397c8	0.001736396
48	0x3dc1752d	0.09446178
49	0x3d4b2d53	0.04960377
50	0x3df588fb	0.119890176
51	0x3d9f7a44	0.07786992
52	0x3d4722b9	0.0486171
53	0xbd4e51e7	-0.050371077
54	0xbd959fa3	-0.07305839
55	0xbd932c3f	-0.07186174
56	0x3baed5a5	0.005335527
57	0xbddbe98e	-0.107379064
58	0xbcd45ed2	-0.02592412
59	0xbd100c1c	-0.0351678
60	0xbd521127	-0.05128589
61	0x3c0e9e6e	0.008704765
62	0x3d1aa018	0.037750334
63	0x3db84da6	0.08999185
64	0x3d784a3c	0.06061767
65	0xbdd4fa0a	-0.10399254
66	0x3dc28746	0.094984576
67	0xbd5172fb	-0.051135045
68	0x3c497624	0.012296233
69	0xbce3c63b	-0.027804485
70	0x3df92b13	0.12166419
71	0xbdb51613	-0.08842101
72	0xbdb28e92	-0.087185994
73	0xbd3c8f50	-0.04603511
74	0x3cd37171	0.025810929
75	0xbc92f458	-0.017938778
76	0x3cc3312f	0.023827164
77	0xbddb9346	-0.107214496
78	0xbd9e44a8	-0.07727939
79	0xbd921f6f	-0.07134902
80	0xbd630df6	-0.055433236
81	0xbc016c64	-0.0078993775
82	0x3d205905	0.039147396
83	0xbd7f0bea	-0.06226722
84	0xbcfec66d	-0.031100476
85	0x3d0cfa9e	0.034418695
86	0x3cbd8655	0.023135344
87	0x3daf65ca	0.085643366
88	0xbd529b41	-0.051417593
89	0xbd291ab5	-0.041285235
90	0xbd5e8ecb	-0.054335397
91	0xbc6f7892	-0.014616149
92	0x3dadfe63	0.08495786
93	0x3d511cbc	0.051052794
94	0xbd4afe75	-0.049559075
95	0xbd93a4e4	-0.07209185
96	0x3daa5bf4	0.0831832
97	0xbcf2ed9a	-0.029654313
98	0xbcca8bd4	-0.024724878
99	0x3ddc111f	0.10745453
100	0x3d0fc91c	0.035103902
101	0x3d3bf05e	0.04588353
102	0xbc6072cf	-0.0136992475
103	0xbcb1beb3	-0.021697378
104	0x3d7bd011	0.061477724
105	0x3d5a3d1d	0.05328094
106	0xbda2b763	-0.079451345
107	0xbc1521ff	-0.009102344
108	0xbd0070dc	-0.03135763
109	0x3d8ef3b9	0.0698008
110	0xbbc43ac2	-0.00598845
111	0x3dbba8be	0.091630444
112	0xbd156d3b	-0.036481123
113	0x3d6d6664	0.057958975
114	0x3d83e997	0.06441038
115	0x3d3719a1	0.044702176
116	0x3da174dc	0.07883617
117	0xbcc5cdc3	-0.024145966
118	0x3dc346fa	0.09535022
119	0xbd5eef52	-0.054427452
120	0x3a787148	0.00094773294
121	0xbdadc151	-0.08484138
122	0x3d6b479b	0.057441335
123	0x3d434daa	0.047681488
124	0xbd894998	-0.0670349
125	0x3d31bfea	0.043395914
126	0x3d678a2e	0.056528263
127	0x3da01519	0.07816524
128	0x3d8a53ae	0.06754242
129	0xbca20bd6	-0.019781034
130	0xbd0a9a22	-0.0338384
131	0xbc96403b	-0.018341174
132	0xbc9d307d	-0.01918816
133	0xbdabf38e	-0.08396064
134	0xbc863c64	-0.016386218
135	0x3d3bcfc8	0.045852453
136	0xbc21b5b1	-0.009869979
137	0xbdbc47f1	-0.09193409
138	0xbcfd2ace	-0.0309042
139	0xbcef9ce1	-0.02924961
140	0xbd6739fc	-0.056451783
141	0xbd29e85d	-0.041481365
142	0xbd7af6c9	-0.06127051
143	0xbd74f0fd	-0.059800137
144	0xbda05427	-0.07828551
145	0x3d82535a	0.06363554
146	0x3dd30ab9	0.103047796
147	0xbd2866c2	-0.041113622
148	0x3cd79bec	0.026319467
149	0xbe019cad	-0.12657423
150	0x3bcb4718	0.0062035434
151	0x3d971006	0.07376103
152	0xbbb50d4a	-0.005525266
153	0x3b7c6f18	0.0038518365
154	0xbc2ec482	-0.010666968
155	0xbd60111b	-0.054703813
156	0x3d8fe0f7	0.070253305
157	0x3caa7747	0.020808829
158	0x3daf0d35	0.08547441
159	0xbcddfac9	-0.027097123
160	0xba055d58	-0.00050874567
161	0x3d9125b2	0.07087268
162	0xbe0947ae	-0.1340625
163	0x3d307b88	0.04308656
164	0x3db9c4fd	0.09070776
165	0xbd0ce791	-0.034400526
166	0x3d2eb931	0.04265708
167	0xbc2e72f0	-0.01064752
168	0x3dd84d09	0.10561568
169	0x3d87c8d0	0.06630099
170	0x3db80f3c	0.08987281
171	0x3d8d3314	0.06894508
172	0xbcddf3b5	-0.027093748
173	0x3d5f245c	0.054478034
174	0xbc4d979a	-0.012548352
175	0xbd0bc93f	-0.03412747
176	0xbdc66f40	-0.09689188
177	0xbdae58f4	-0.0851306
178	0xbd230ab3	-0.039805125
179	0x3dc27a80	0.09496021
180	0x3bd83956	0.006598632
181	0xbd94a895	-0.07258717
182	0xbb72c752	-0.0037045074
183	0x3d78d4c6	0.06074979
184	0x3d116472	0.035496183
185	0xbcef21fb	-0.029191008
186	0x3d3ef1c4	0.046617284
187	0xbd4c8a91	-0.049936835
188	0x3bf6ad8a	0.0075280117
189	0x3c334e2e	0.010943932
190	0xbd4d4d05	-0.05012228
191	0xbdb6e4d1	-0.08930362
192	0xbd5ab0e5	-0.053391356
193	0xbc8236f3	-0.015895342
194	0xbdb2ed2f	-0.087366454
195	0xbe176238	-0.14783561
196	0x3c1ed33b	0.009693916
197	0x3d875e0d	0.06609736
198	0xbda27c70	-0.07933891
199	0xbd816688	-0.063183844
200	0xbd21ee45	-0.039533872
201	0xbd099b38	-0.033595294
202	0xbd109628	-0.03529945
203	0x3dc0bc59	0.094109245
204	0x3d2800d0	0.0410164
205	0xbc0c576f	-0.008565768
206	0xbc3bbcd2	-0.0114585925
207	0x3c9875e2	0.018610898
208	0x3ddc6658	0.10761708
209	0xbdcfb0c2	-0.10141136
210	0xbb647227	-0.003485808
211	0xbd19a1d6	-0.037507854
212	0xbd38e4b0	-0.04513997
213	0xbc688c6f	-0.014193638
214	0xbca021d3	-0.019547379
215	0xbb7e27ce	-0.003878105
216	0x3d9d4a36	0.0768017
217	0xbd8909c4	-0.06691316
218	0x3c831299	0.016000079
219	0xbd3d6dc7	-0.04624727
220	0xbddca5c7	-0.10773807
221	0x3d416e06	0.047224067
222	0x3d08de5c	0.033415183
223	0x3b33bb46	0.0027424856
224	0xbbded89f	-0.0068007256
225	0x3d1b1bec	0.037868425
226	0xbcbe6540	-0.02324164
227	0xbd32c0f0	-0.04364103
228	0xbc5a333b	-0.013317878
229	0xbdcd9587	-0.10038286
230	0x3d4bf198	0.04979095
231	0x3e2f4528	0.17116225
232	0x3dff8b30	0.1247772
233	0x3c8a7f4d	0.016906405
234	0xbda2d66d	-0.07951055
235	0x3d591005	0.052993793
236	0x3d0cb904	0.034356132
237	0xbd943a55	-0.072376885
238	0xbc9ffb45	-0.019528994
239	0x3dc1eda6	0.09469156
240	0x3cbef3d6	0.02330963
241	0xbbd69097	-0.006547998
242	0x3b75a400	0.0037481785
243	0x3a8ccbfa	0.0010741942
244	0x3d1a6846	0.0376971
245	0xbcfc0227	-0.030762745
246	0xbd896a9a	-0.06709786
247	0x3c696188	0.014244445
248	0xbdbf8e48	-0.0935331
249	0xbd82b65d	-0.06382439
250	0xbde91fa2	-0.113829866
251	0xbd77bdfc	-0.060483918
252	0xbd8fac8e	-0.07015334
253	0xbc55f120	-0.013057977
254	0xbd82d3a7	-0.06388026
255	0xbdb439f2	-0.08800115

bias f4 [84]
0	0x3cd235c8	0.02566041
1	0xbca040a8	-0.01956208
2	0xb9e3d83b	-0.00043457918
3	0xbc981d07	-0.018568529
4	0x3d85f6b4	0.065411955
5	0xbcb40ca5	-0.021978686
6	0x3be8df43	0.007106693
7	0xbdc88d4c	-0.09792575
8	0xb8936429	-7.0281625e-05
9	0xbd08c048	-0.0333865
10	0x3d13c6a4	0.03607811
11	0x3bf12cdd	0.0073600844
12	0xbd037a65	-0.032099146
13	0xbd986b72	-0.074423686
14	0x3d2aba6d	0.041681696
15	0xbc4aa9ac	-0.0123695545
16	0x3c5a6b80	0.013331294
17	0x3ca8ad59	0.020590471
18	0x3d3e6ced	0.0464906
19	0xbda77180	-0.08175945
20	0xbdc04c09	-0.093895026
21	0x3cda5c67	0.026655389
22	0xbaf1eb03	-0.001845688
23	0xbc18928c	-0.009312283
24	0x3d57a628	0.052648693
25	0xbd2422cf	-0.04007226
26	0xbdc2abf2	-0.09505452
27	0xbdbe7a49	-0.09300668
28	0x3ca4473b	0.020053497
29	0x3da87fb3	0.08227482
30	0x3bcab98b	0.006186669
31	0x3da4002b	0.080078445
32	0x3d7ad1ba	0.061235167
33	0xbcf9896e	-0.03046104
34	0xbc6f13b9	-0.014592105
35	0x3d1f6366	0.038913153
36	0x3db712c3	0.089391254
37	0xbd467691	-0.048452917
38	0x3d61956a	0.055074133
39	0xbc7ed8b7	-0.0155545985
40	0x3a4aae35	0.00077316473
41	0x3c073680	0.00825274
42	0xbd3b1035	-0.045669753
43	0x3c4065e0	0.011743039
44	0x3dae8757	0.08521908
45	0x3d6159cf	0.05501729
46	0x3df3a4b1	0.11896647
47	0xbd765814	-0.06014259
48	0x3d84157f	0.064494126
49	0xbc83a31f	-0.016068993
50	0xbd2d3059	-0.042282436
51	0xbd4a881d	-0.049446214
52	0x3dc4cab9	0.09608979
53	0x3da2c2a7	0.07947283
54	0xbd9b2330	-0.07575071
55	0xbd27fd35	-0.04101296
56	0x3d981d32	0.074274436
57	0xbd8a1b0c	-0.0674344
58	0x3d923111	0.07138265
59	0x3d3f8520	0.046757817
60	0x3d4b50f4	0.04963775
61	0xbc7f9a61	-0.015600772
62	0xbda623e8	-0.08112317
63	0x3dc692b9	0.09695954
64	0x3bd44104	0.006477477
65	0x3d8f1da3	0.06988075
66	0x3cf6cb4c	0.030126236
67	0xbd43dfae	-0.04782074
68	0xbbe32ee5	-0.0069330805
69	0x3c56bf7a	0.013107175
70	0xbbc4ab67	-0.006001878
71	0x3d3aaacf	0.045573052
72	0xbd32af77	-0.043624368
73	0xbd9ceba6	-0.07662134
74	0xbd95c8a4	-0.0731366
75	0x3d1432bb	0.036181193
76	0x3daa3dbe	0.08312558
77	0x3dc5149d	0.09623072
78	0xbcab9837	-0.020946605
79	0x3bd7baf8	0.0065835677
80	0xbd6b29e3	-0.057412993
81	0xbd9a3223	-0.07529094
82	0xbd077596	-0.033071123
83	0x3da0bba8	0.078482926

weight f4 [29, 84]
0	0x3cb682cc	0.022279166
1	0xbd678da4	-0.056531563
2	0x3c927a8a	0.017880697
3	0x3cc3e465	0.023912618
4	0xbc8b6f4e	-0.017020848
5	0x3e3ac262	0.18238214
6	0xbbfcb74f	-0.007712282
7	0x3ca42018	0.020034835
8	0xbde155a6	-0.11002664
9	0x3dc72acc	0.0972496
10	0xbc55adf8	-0.013041966
11	0x3df64c83	0.12026312
12	0x3dae5d70	0.085139155
13	0xbd287178	-0.041123837
14	0x3ddb1f65	0.106993474
15	0xbd9a6319	-0.07538433
16	0xbdaf331a	-0.08554669
17	0xbd97a5f7	-0.07404702
18	0x3ded1f8d	0.115782835
19	0xbd13e7c7	-0.036109712
20	0xbe064839	-0.13113488
21	0x3e06df27	0.13171063
22	0x3dd15f51	0.10223258
23	0x3d0f30e6	0.034958743
24	0x3e1fe2a1	0.15613796
25	0xba313052	-0.00067592144
26	0x3db709cf	0.08937418
27	0xbcfa2fb0	-0.030540317
28	0x3dfb0381	0.12256528
29	0x3dcd7ffa	0.10034175
30	0x3c159d69	0.009131768
31	0x3d8a7d9e	0.06762241
32	0xbdb63730	-0.08897245
33	0xbcc50d17	-0.024054093
34	0x3da27265	0.07931975
35	0xbddc06e6	-0.10743503
36	0xbda9fed9	-0.083005615
37	0xbb2b49d6	-0.002613654
38	0xbd484253	-0.048891377
39	0xbdd4852c	-0.10376963
40	0xbd7f1923	-0.06227983
41	0xbcc1bafd	-0.023648733
42	0x3e009268	0.1255585
43	0xbd561c29	-0.05227295
44	0x3e182c64	0.14860684
45	0xbd909e1f	-0.07061409
46	0x3d19ea93	0.037577223
47	0xbc874b1d	-0.016515309
48	0xbce9c48c	-0.028536104
49	0x3db218bf	0.08696126
50	0x3d77d04a	0.060501374
51	0x3d7c93a6	0.061664246
52	0xbc4e0ad3	-0.012575823
53	0x3c17a891	0.009256498
54	0xbda31978	-0.07963842
55	0xbb027fa6	-0.001991251
56	0x3dbef14c	0.093233675
57	0x3cdecbca	0.027196784
58	0x3d6368b0	0.05551976
59	0x3d70a8ae	0.058754615
60	0xb83e787b	-4.5411736e-05
61	0xbcdb2456	-0.026750725
62	0xbe3c406f	-0.18383954
63	0xbe30363b	-0.17208187
64	0x3c95fb0f	0.01830819
65	0x3bf456d3	0.0074566393
66	0x3d820bd6	0.06349914
67	0xbc26efc1	-0.010188998
68	0xbdabebe1	-0.083946
69	0x3de3baf5	0.111196436
70	0xbd387fea	-0.045043863
71	0xbd919e70	-0.07110298
72	0x3ca1ce22	0.019751612
73	0xbc3f8b69	-0.011690953
74	0x3dcc62ca	0.0997978
75	0xbb96fe90	-0.004607983
76	0xbddcc7ea	-0.10780318
77	0xba298a63	-0.00064674596
78	0xbcbdbf6f	-0.023162572
79	0x3e379adc	0.17930168
80	0xbd94f8dc	-0.07274029
81	0xbdc1db46	-0.09465651
82	0x3dd78e2c	0.10525164
83	0xbd0aab23	-0.033854615
84	0x3dba8c4a	0.09108789
85	0xbdc1b6a7	-0.09458666
86	0xbd49db4c	-0.049281403
87	0xbd7a110d	-0.061051417
88	0x3b2f16db	0.0026716504
89	0xbc1ba805	-0.009500508
90	0xbdee1454	-0.11624971
91	0xbd23c89d	-0.03998624
92	0x3df3fe7f	0.11913776
93	0xbc8eb25f	-0.017419038
94	0x3bfc165e	0.007693096
95	0x3e11301a	0.14178506
96	0xbd6d5352	-0.05794079
97	0x3d2150e3	0.03938378
98	0x3cd5472d	0.026034916
99	0x3be3b778	0.0069493614
100	0xbc4de65b	-0.012567128
101	0xbdd5b6e2	-0.10435273
102	0xbd995485	-0.07486824
103	0xbd7f10aa	-0.06227175
104	0xbde1b08c	-0.11020002
105	0xbd0c342a	-0.034229435
106	0xbdb21d42	-0.08696987
107	0x3cb0157f	0.021494625
108	0x3e42f16e	0.1903741
109	0xbe2dd391	-0.16975237
110	0x3ca572fb	0.020196429
111	0xbe66dfae	-0.22546265
112	0x3d940c38	0.07228893
113	0x3d262851	0.040565792
114	0xbbeba874	-0.007191712
115	0xbe19173f	-0.14950274
116	0x3bcfc8a1	0.0063410555
117	0x3d6548fe	0.055977814
118	0x3d445afe	0.04793834
119	0x3d8ff445	0.070290126
120	0x3ab75527	0.0013987169
121	0x3d1f00a7	0.03881898
122	0xbe2436a3	-0.16036467
123	0xbcf4fb19	-0.029904889
124	0xbdb58fdb	-0.08865329
125	0x3e551c7a	0.20811644
126	0xbdc3a0f0	-0.09552181
127	0xbe0f2ea6	-0.13982639
128	0xbdc0b6a5	-0.09409837
129	0x3da27e7f	0.079342835
130	0xbd8ccc54	-0.0687491
131	0x3de361fc	0.111026734
132	0xbd81b9f5	-0.063342966
133	0x3d06f03f	0.03294396
134	0x3da56870	0.080765605
135	0xbcd73918	-0.026272342
136	0x3d285fc3	0.04110695
137	0x3d2c6e69	0.042097483
138	0x3d28fcb8	0.041256636
139	0x3da13c19	0.07872791
140	0xbdeacea8	-0.11465198
141	0x3d3b237e	0.045688145
142	0xbddc06cb	-0.10743483
143	0xbdc390f6	-0.095491335
144	0xbd175c70	-0.03695339
145	0xbc3944f5	-0.011307945
146	0x3d5e6596	0.0542961
147	0x3d84cecd	0.064847566
148	0x3c1e99c2	0.009680213
149	0xbd712b7f	-0.05887937
150	0xbd4b734e	-0.04967051
151	0x3d97a98f	0.074053876
152	0x3cc8a356	0.024491947
153	0xbce23428	-0.02761276
154	0xbd0d2cb0	-0.034466445
155	0xbe1594de	-0.1460757
156	0xbdb6d024	-0.089264184
157	0x3c53cbca	0.012927005
158	0x3d8df7de	0.069320425
159	0x3c5d3888	0.013502248
160	0x3e103e8e	0.14086363
161	0x3bebb0a4	0.007192688
162	0xbc8b2e5c	-0.01698988
163	0x3d20f0f6	0.0392923
164	0xbd0295bf	-0.03188109
165	0xbdcc0548	-0.09961945
166	0x3da9855f	0.08277392
167	0xbd0ee246	-0.03488376
168	0xbda76eb9	-0.081754155
169	0xbce08e24	-0.027411528
170	0x3d7b1487	0.061298873
171	0x3c64af1c	0.013957765
172	0x3e044b50	0.12919354
173	0x3d3607f1	0.044441167
174	0x3dc2e510	0.095163465
175	0x3d40bbb3	0.047054004
176	0x3db262de	0.08710264
177	0x3e4b52d9	0.19855823
178	0xbccb33bd	-0.024804944
179	0xbbdb854e	-0.0066992408
180	0xbdb11889	-0.08647258
181	0xbe169266	-0.14704284
182	0x3d8d6b34	0.06905213
183	0xbd53f39c	-0.051745996
184	0xbd6bd294	-0.05757387
185	0xbcf97103	-0.030449396
186	0xbd37f44f	-0.044910725
187	0xbcd0413f	-0.025421737
188	0x3e0baa32	0.13639143
189	0x3cdfe745	0.027331958
190	0x3ca77825	0.020443032
191	0x3d6760cf	0.05648881
192	0xbd19cb96	-0.03754767
193	0x3db74043	0.08947804
194	0xbd91768b	-0.071026884
195	0x3cb86dd7	0.022513313
196	0x3cec3561	0.028834047
197	0xbc900c83	-0.017584091
198	0x3d87acdd	0.06624768
199	0xbd910913	-0.07081809
200	0xbd523965	-0.051324267
201	0xbe184e03	-0.14873509
202	0xbda72399	-0.081610866
203	0xbc4847d1	-0.012224154
204	0x3d096c76	0.033550702
205	0xb9015ec0	-0.00012337696
206	0x3d129f11	0.03579623
207	0xbd9fc918	-0.078020275
208	0xbb5ca775	-0.0033669148
209	0xbce8c045	-0.028411994
210	0x3e440f82	0.19146541
211	0x3db1da30	0.08684194
212	0xbd6ebbfc	-0.058284745
213	0x3dafe5cb	0.085887514
214	0xbdf0cb7e	-0.11757563
215	0xbe3e16c3	-0.1856337
216	0x3d7173b8	0.05894825
217	0x3d151136	0.036393367
218	0xbcf1bb68	-0.029508308
219	0x3db17cc6	0.08666377
220	0xbbdd31f4	-0.0067503396
221	0x3c7e03e3	0.015503856
222	0xbd569b1f	-0.05239403
223	0x3b69b9c4	0.0035663703
224	0x3d6ff46f	0.05858272
225	0xbd992da6	-0.0747941
226	0xbcd6c1fe	-0.02621555
227	0x3dd0c6d7	0.10194176
228	0x3b79973a	0.0038084523
229	0x3df2fa26	0.11864118
230	0xbcdd9e33	-0.027052974
231	0xbd6924df	-0.05691993
232	0x3da5249f	0.080636255
233	0x3cb57974	0.02215264
234	0x3dc2ccd7	0.09511726
235	0x3d43d659	0.04781184
236	0x3d973d12	0.07384695
237	0xbcdf3d30	-0.027250856
238	0x3d416e6d	0.04722445
239	0xbd531691	-0.051535193
240	0x3db0568d	0.08610258
241	0xbdb8499a	-0.089984134
242	0xbd7cd76b	-0.061728876
243	0x3dbe9af2	0.09306897
244	0xbdb98566	-0.09058647
245	0x3c121009	0.008914956
246	0x3c3e929f	0.011631637
247	0x3d140c22	0.036144383
248	0xbd61d213	-0.055131983
249	0xbdd6cd19	-0.10488338
250	0x3d54da2b	0.051965874
251	0x3c787df2	0.015166746
252	0xbcc9c88e	-0.024631765
253	0xbdbf4099	-0.09338493
254	0x3c87c2ea	0.016572434
255	0xbdab5e4c	-0.08367595
